
loading checkpoint
Wrapping the env in a VecTransposeImage.
MultiInputActorCriticPolicy(
  (features_extractor): CombinedExtractor(
    (extractors): ModuleDict(
      (badges): Flatten(start_dim=1, end_dim=-1)
      (events): Flatten(start_dim=1, end_dim=-1)
      (health): Flatten(start_dim=1, end_dim=-1)
      (level): Flatten(start_dim=1, end_dim=-1)
      (map): NatureCNN(
        (cnn): Sequential(
          (0): Conv2d(1, 32, kernel_size=(8, 8), stride=(4, 4))
          (1): ReLU()
          (2): Conv2d(32, 64, kernel_size=(4, 4), stride=(2, 2))
          (3): ReLU()
          (4): Conv2d(64, 64, kernel_size=(3, 3), stride=(1, 1))
          (5): ReLU()
          (6): Flatten(start_dim=1, end_dim=-1)
        )
        (linear): Sequential(
          (0): Linear(in_features=256, out_features=256, bias=True)
          (1): ReLU()
        )
      )
      (recent_actions): Flatten(start_dim=1, end_dim=-1)
      (screens): NatureCNN(
        (cnn): Sequential(
          (0): Conv2d(3, 32, kernel_size=(8, 8), stride=(4, 4))
          (1): ReLU()
          (2): Conv2d(32, 64, kernel_size=(4, 4), stride=(2, 2))
          (3): ReLU()
          (4): Conv2d(64, 64, kernel_size=(3, 3), stride=(1, 1))
          (5): ReLU()
          (6): Flatten(start_dim=1, end_dim=-1)
        )
        (linear): Sequential(
          (0): Linear(in_features=1920, out_features=256, bias=True)
          (1): ReLU()
        )
      )
    )
  )
  (pi_features_extractor): CombinedExtractor(
    (extractors): ModuleDict(
      (badges): Flatten(start_dim=1, end_dim=-1)
      (events): Flatten(start_dim=1, end_dim=-1)
      (health): Flatten(start_dim=1, end_dim=-1)
      (level): Flatten(start_dim=1, end_dim=-1)
      (map): NatureCNN(
        (cnn): Sequential(
          (0): Conv2d(1, 32, kernel_size=(8, 8), stride=(4, 4))
          (1): ReLU()
          (2): Conv2d(32, 64, kernel_size=(4, 4), stride=(2, 2))
          (3): ReLU()
          (4): Conv2d(64, 64, kernel_size=(3, 3), stride=(1, 1))
          (5): ReLU()
          (6): Flatten(start_dim=1, end_dim=-1)
        )
        (linear): Sequential(
          (0): Linear(in_features=256, out_features=256, bias=True)
          (1): ReLU()
        )
      )
      (recent_actions): Flatten(start_dim=1, end_dim=-1)
      (screens): NatureCNN(
        (cnn): Sequential(
          (0): Conv2d(3, 32, kernel_size=(8, 8), stride=(4, 4))
          (1): ReLU()
          (2): Conv2d(32, 64, kernel_size=(4, 4), stride=(2, 2))
          (3): ReLU()
          (4): Conv2d(64, 64, kernel_size=(3, 3), stride=(1, 1))
          (5): ReLU()
          (6): Flatten(start_dim=1, end_dim=-1)
        )
        (linear): Sequential(
          (0): Linear(in_features=1920, out_features=256, bias=True)
          (1): ReLU()
        )
      )
    )
  )
  (vf_features_extractor): CombinedExtractor(
    (extractors): ModuleDict(
      (badges): Flatten(start_dim=1, end_dim=-1)
      (events): Flatten(start_dim=1, end_dim=-1)
      (health): Flatten(start_dim=1, end_dim=-1)
      (level): Flatten(start_dim=1, end_dim=-1)
      (map): NatureCNN(
        (cnn): Sequential(
          (0): Conv2d(1, 32, kernel_size=(8, 8), stride=(4, 4))
          (1): ReLU()
          (2): Conv2d(32, 64, kernel_size=(4, 4), stride=(2, 2))
          (3): ReLU()
          (4): Conv2d(64, 64, kernel_size=(3, 3), stride=(1, 1))
          (5): ReLU()
          (6): Flatten(start_dim=1, end_dim=-1)
        )
        (linear): Sequential(
          (0): Linear(in_features=256, out_features=256, bias=True)
          (1): ReLU()
        )
      )
      (recent_actions): Flatten(start_dim=1, end_dim=-1)
      (screens): NatureCNN(
        (cnn): Sequential(
          (0): Conv2d(3, 32, kernel_size=(8, 8), stride=(4, 4))
          (1): ReLU()
          (2): Conv2d(32, 64, kernel_size=(4, 4), stride=(2, 2))
          (3): ReLU()
          (4): Conv2d(64, 64, kernel_size=(3, 3), stride=(1, 1))
          (5): ReLU()
          (6): Flatten(start_dim=1, end_dim=-1)
        )
        (linear): Sequential(
          (0): Linear(in_features=1920, out_features=256, bias=True)
          (1): ReLU()
        )
      )
    )
  )
  (mlp_extractor): MlpExtractor(
    (policy_net): Sequential(
      (0): Linear(in_features=3038, out_features=64, bias=True)
      (1): Tanh()
      (2): Linear(in_features=64, out_features=64, bias=True)
      (3): Tanh()
    )
    (value_net): Sequential(
      (0): Linear(in_features=3038, out_features=64, bias=True)
      (1): Tanh()
      (2): Linear(in_features=64, out_features=64, bias=True)
      (3): Tanh()
    )
  )
  (action_net): Linear(in_features=64, out_features=7, bias=True)
  (value_net): Linear(in_features=64, out_features=1, bias=True)
)
Logging to runs/poke_ppo_5
wandb: WARNING Fatal error while uploading data. Some run data will not be synced, but it will still be written to disk. Use `wandb sync` at the end of the run to try uploading.
-------------------------------
| time/              |        |
|    fps             | 6459   |
|    iterations      | 1      |
|    time_elapsed    | 25     |
…
